checkpoint.pth (torch_old, 28545 bytes, 6 tensors)

layers.0.weight f4 [64, 37]
0	0x3d859c1f	0.06523918
1	0x3cbda530	0.023150057
2	0xbde3c56c	-0.111216396
3	0xbdf3e330	-0.11908567
4	0xbb8a68d4	-0.0042239223
5	0x3d6886bf	0.05676913
6	0xbcf896e9	-0.030345397
7	0x3dc33df0	0.09533298
8	0x3e248d0a	0.16069427
9	0xbe4f6b11	-0.20255686
10	0x3df9df73	0.12200823
11	0xbdcfc59d	-0.101451136
12	0xbd12fcb9	-0.035885546
13	0xbe38c9e0	-0.18045759
14	0xbec3a9a5	-0.38215366
15	0xbbe435ff	-0.0069644446
16	0xbcf0fd81	-0.029417755
17	0x3e36a07b	0.17834656
18	0x3d8a3f63	0.06750371
19	0xbc90c8e6	-0.01767392
20	0x3e037541	0.12837698
21	0xbe3cb4b0	-0.18428302
22	0x3ddcac8f	0.107751004
23	0x3e11ea68	0.14249575
24	0x3c0cf87d	0.008604166
25	0x3df77485	0.12082771
26	0xbbc55fcd	-0.0060233832
27	0xbe2c8283	-0.16846661
28	0x3d114be4	0.035472766
29	0xbdc51b83	-0.09624388
30	0xbabaa0ce	-0.0014238597
31	0x3d906f13	0.07052436
32	0xbdba389e	-0.0909283
33	0x3cc62d1c	0.024191432
34	0xbd0ce4a3	-0.034397732
35	0xbd1c9538	-0.038228244
36	0xbb10be41	-0.0022086056
37	0x3e38e133	0.18054657
38	0x3db82693	0.089917324
39	0x3d2d302a	0.04228226
40	0x3dfb988e	0.12284957
41	0xbdc6f5e9	-0.097148724
42	0x3dac9803	0.084274314
43	0xbe0e4e15	-0.13896973
44	0xbdf36248	-0.1188398
45	0xbe6a6377	-0.22889505
46	0xbe5d409f	-0.21606682
47	0xbd6381b3	-0.055543613
48	0x3df6d768	0.12052804
49	0x3d57b74a	0.052665032
50	0x3d865c23	0.065605424
51	0x3d536753	0.05161221
52	0x3e06be77	0.13158594
53	0x3dc54289	0.09631831
54	0x3d1408a6	0.03614106
55	0xbe05c029	-0.13061585
56	0x3c214345	0.009842698
57	0x3df358b6	0.11882155
58	0xbe2f86bb	-0.1714124
59	0xbe5efe41	-0.21776678
60	0xbe27f07d	-0.16400333
61	0xbeb8e47c	-0.3611182
62	0xbcedbea9	-0.029021578
63	0xbc920ae8	-0.017827466
64	0x3da0cd67	0.078516774
65	0xbd9693c9	-0.073524065
66	0xbd88ffca	-0.06689413
67	0x3df4d20b	0.11954125
68	0x3da9c7bc	0.082900494
69	0x3d1ff4eb	0.03905193
70	0xbc121fa5	-0.008918677
71	0xbe066970	-0.13126159
72	0x3c151958	0.009100281
73	0x3ced9cb9	0.029005395
74	0xbd0a15a0	-0.03371203
75	0x3d9f8bda	0.077903464
76	0x3e8520b7	0.26001522
77	0xbe043faa	-0.12914911
78	0x3dd81f94	0.10552898
79	0xbd9c013b	-0.07617422
80	0xbcf8ab09	-0.030354993
81	0x3e055b6e	0.13023159
82	0xbd75703b	-0.059921484
83	0xbe1edbfe	-0.15513608
84	0x3d21986f	0.039452013
85	0xbe2923b2	-0.16517523
86	0x3e2738c5	0.1633025
87	0xbeddaa40	-0.43293953
88	0x3ae4f706	0.0017468638
89	0xbe81c81c	-0.25347984
90	0x3d1ceedd	0.038313735
91	0x3e35c27d	0.17749973
92	0xbe1c8296	-0.1528419
93	0xbe00ea32	-0.12589338
94	0xbdd0e4cb	-0.10199889
95	0x3d76087a	0.060066678
96	0x3db01657	0.08598011
97	0xbe8d1e22	-0.27562052
98	0x3da5a71b	0.080885135
99	0xbf216c1f	-0.63055605
100	0x3dd31796	0.10307233
101	0x3e58d825	0.21176203
102	0xbcf6192d	-0.030041302
103	0xbf09ace2	-0.53779423
104	0xbe3d171f	-0.18465851
105	0x3cfa8080	0.030578852
106	0xbdee1756	-0.11625545
107	0xbdf51886	-0.11967568
108	0xbe379ec1	-0.17931654
109	0x3df6e3bc	0.12055156
110	0xbd356884	-0.044289127
111	0xbdec9311	-0.11551488
112	0x3cf627ca	0.03004827
113	0x3e4052a4	0.18781525
114	0x3e0d4277	0.13794886
115	0xbeca0a3e	-0.3946094
116	0xbd9ba0af	-0.07599007
117	0x3db1fcf2	0.086908236
118	0xbc7dd2e3	-0.015492174
119	0x3dbc07dc	0.091811866
120	0xbda741cb	-0.08166846
121	0x3e132093	0.14367895
122	0xbeec5110	-0.46155596
123	0xbd2c1acc	-0.042017743
124	0xbe0d75ba	-0.1381444
125	0xbf39456c	-0.72371554
126	0xbd116b32	-0.03550262
127	0xbb85006d	-0.0040588886
128	0xbe2e9a0d	-0.17050953
129	0xbe2fc94a	-0.1716663
130	0xbdc133ed	-0.09433732
131	0xbe047a87	-0.12937365
132	0xbdf50a74	-0.119648844
133	0xbc3537e4	-0.011060689
134	0x3e8ab62d	0.27092114
135	0xbdaa2a69	-0.0830887
136	0xbe8142f4	-0.25246394
137	0xbb95a9d2	-0.0045673633
138	0x3e60e3a4	0.21961838
139	0x3e9377ca	0.2880233
140	0x3e02516e	0.12726375
141	0x3ded3526	0.11582403
142	0x3e82b6c5	0.25530067
143	0xbe1e1b07	-0.15439998
144	0xbd056e30	-0.032575786
145	0xbeb18484	-0.34671414
146	0x3df84c59	0.12123937
147	0xbc156ab6	-0.00911968
148	0xbe091ca9	-0.13389839
149	0xbc84323f	-0.01613724
150	0xbd42459f	-0.047429677
151	0xbd921308	-0.07132536
152	0x3cfd6435	0.030931571
153	0x3ed08bcb	0.40731654
154	0xbed77928	-0.42084622
155	0xbf0a56d7	-0.5403876
156	0xbef3cc0a	-0.47616607
157	0xc009d6f4	-2.1537447
158	0xbc112b75	-0.008860459
159	0xbaee0126	-0.0018158301
160	0xbcdd377b	-0.027003994
161	0xbdc8361d	-0.09775946
162	0xbdcf75aa	-0.101298645
163	0xbdb0470f	-0.08607303
164	0xbc8c0e9e	-0.017096814
165	0x3bef1bcf	0.007297016
166	0x3de1ce90	0.11025727
167	0x3e117dcb	0.14208142
168	0xbd2ff676	-0.042959653
169	0xbba5a87e	-0.005055486
170	0x3d7d5ba9	0.061854992
171	0x3d8c1de3	0.06841638
172	0x3e245585	0.16048248
173	0x3d773883	0.06035663
174	0x3df704fb	0.12061497
175	0x3dc4620c	0.095890135
176	0x3e00db79	0.12583722
177	0x3d98506b	0.074372135
178	0x3d9f4393	0.07776561
179	0x3da667c7	0.08125263
180	0x3dee67be	0.11640881
181	0x3e354e7e	0.17705724
182	0x3d8de5e1	0.069286115
183	0x3c2e2cdb	0.010630812
184	0x3b1abee5	0.0023612317
185	0xbdcfc17b	-0.10144325
186	0x3db85787	0.090010695
187	0x3d1fb55a	0.03899131
188	0xbbf40c86	-0.007447782
189	0x3e38930b	0.18024842
190	0x3e1d890b	0.15384309
191	0x3e05a2b8	0.13050354
192	0xbb48458d	-0.0030559034
193	0xbe2d1dd7	-0.16905914
194	0xbf00103c	-0.5002477
195	0x3bc4c4d6	0.00600491
196	0xbd41613f	-0.04721188
197	0xbd9ee4b3	-0.07758465
198	0xbd51d03a	-0.05122397
199	0x3d9250f1	0.071443446
200	0xbd7d7e23	-0.06188787
201	0x3dbfb02f	0.09359776
202	0xb94f94f9	-0.00019796555
203	0xbd911f9a	-0.07086106
204	0xbe9da2ea	-0.30788356
205	0x3e55bcf8	0.20872867
206	0x3d84bc8e	0.064812765
207	0x3be054a5	0.006846028
208	0x3d283be4	0.04107274
209	0xbdebb67e	-0.11509417
210	0x3cd23925	0.025662014
211	0xbdbdb3c4	-0.09262803
212	0x3d0c7509	0.0342913
213	0x3c29add2	0.010356383
214	0xbdc29f9c	-0.09503099
215	0x3d9d004d	0.07666073
216	0xbd3b4c9b	-0.045727354
217	0xbe08944e	-0.13337824
218	0x3dbf2778	0.093337
219	0xbe1ed55b	-0.15511076
220	0xbd03eb90	-0.03220707
221	0x3cd91871	0.026500912
222	0x3e0c2466	0.1368576
223	0xbe2ec5c1	-0.17067625
224	0xbe1fb611	-0.15596797
225	0xbe8dd8b3	-0.2770439
226	0xbf6f2867	-0.93421024
227	0x3d3dda2a	0.046350636
228	0xbda8ffd5	-0.08251921
229	0xbe3b5fa0	-0.18298197
230	0x3c857ba4	0.016294308
231	0x3e8e1419	0.27749708
232	0x3db37e46	0.08764319
233	0x3d9325bf	0.07184934
234	0x3dccda90	0.10002625
235	0xbed9cca1	-0.42538932
236	0xbe03e2f0	-0.12879539
237	0xbea358b8	-0.31903625
238	0x3c817bc4	0.015806086
239	0x3ce2ea40	0.02769959
240	0xbcbf43b1	-0.023347707
241	0x3dc5d670	0.09660041
242	0xbe1d7392	-0.15376118
243	0x3db18f52	0.08669914
244	0xbd590911	-0.052987162
245	0xbcbacc93	-0.022802627
246	0x3e04ebfb	0.12980644
247	0xbecc7ec6	-0.3994047
248	0xbe0d88dd	-0.1382174
249	0x3d5fcd3f	0.054639097
250	0x3d587b73	0.052852105
251	0xbdf4f2b0	-0.119603515
252	0xbd491bf2	-0.049098916
253	0x3d984ab3	0.07436123
254	0x3d3c0939	0.045907233
255	0xbe35a867	-0.17740022

layers.0.bias f4 [64]
0	0x3e187d6d	0.14891596
1	0xbc3934a1	-0.011304052
2	0xbdc9d85e	-0.09855722
3	0xbd3435ec	-0.043996736
4	0x3e80a1c1	0.25123408
5	0xbc86bbe4	-0.016447015
6	0xbd825b5e	-0.06365083
7	0x3ca2d002	0.019874576
8	0x3d753b35	0.059870917
9	0xbe5a51e5	-0.21320303
10	0x3e3ad6a0	0.18245935
11	0x3e034472	0.12819079
12	0x3db4220f	0.08795559
13	0x3ddf4d05	0.10903362
14	0xbd6ed806	-0.058311485
15	0xbdc6c4d5	-0.097055115
16	0x3c1a0467	0.009400464
17	0xbd941d86	-0.07232194
18	0x3d20fefd	0.039305676
19	0xbe50aa2a	-0.20377412
20	0xbe3036e0	-0.17208433
21	0x3da1808d	0.07885847
22	0x3ce1e006	0.027572643
23	0xbdafb1a7	-0.08578806
24	0xbdc0be7b	-0.09411331
25	0x3de647a9	0.11244137
26	0xbdac756f	-0.08420836
27	0xbe0d9e8a	-0.13830009
28	0x3dac09de	0.084003195
29	0x3dabe2fc	0.08392903
30	0x3d408bb9	0.04700825
31	0xbe162b9d	-0.14665075
32	0x3e3a0e5e	0.18169543
33	0x3da30661	0.07960201
34	0xbe002932	-0.12515715
35	0xbc359b91	-0.011084453
36	0x3cba6952	0.022755299
37	0xbd4444e8	-0.047917277
38	0xbd2ebb3a	-0.042659022
39	0xbe39b687	-0.18136035
40	0xbd9b2c89	-0.07576854
41	0xbd31d3bb	-0.043414813
42	0xbdf4b4f9	-0.1194858
43	0x3e786ecf	0.2426102
44	0x3d75d0f6	0.060013734
45	0xbdce991a	-0.100877956
46	0xbc2a0ef9	-0.010379546
47	0xbe306b4c	-0.1722843
48	0xbdf6497d	-0.120257355
49	0x3b44096e	0.0029912847
50	0xbe0b791e	-0.13620421
51	0x3db78d3c	0.08962485
52	0xbd6b2e4e	-0.057417206
53	0xbe4d81e7	-0.20069085
54	0xbe2dad32	-0.169606
55	0xbd6e3126	-0.05815234
56	0x3e0e06d6	0.13869795
57	0x3d060e56	0.032728516
58	0xbc951953	-0.018200552
59	0xbd6c87c9	-0.057746682
60	0x3ab71cf5	0.0013970422
61	0x3d56fbef	0.052486356
62	0x3db71cab	0.08941015
63	0x3cee952b	0.029123863

layers.1.weight f4 [64, 64]
0	0x3e183b79	0.14866437
1	0x3d8609a6	0.06544809
2	0x3ec48d8a	0.38389236
3	0x3ebbc24b	0.3667167
4	0xbdb8dfb1	-0.09027041
5	0xbf17f130	-0.593524
6	0xbe85a5d3	-0.26103076
7	0xbdaea5e6	-0.08527736
8	0x3dad2550	0.084543824
9	0xbea68624	-0.32524216
10	0xbcd7a7cc	-0.026325129
11	0xbd5e768b	-0.05431227
12	0xbe575f84	-0.2103253
13	0x3dabda2b	0.083912216
14	0xbd68597a	-0.056725956
15	0xbe12dfd4	-0.14343196
16	0xbebaa5f4	-0.36454737
17	0xbeb20cd1	-0.34775403
18	0x3da7a886	0.0818644
19	0xbe002f61	-0.12518074
20	0xbd141cc8	-0.03616026
21	0xbe50c5d5	-0.20387967
22	0xbcb4f5ee	-0.022089925
23	0xbe33f56d	-0.17574091
24	0xbe876b30	-0.26448965
25	0x3e0266b9	0.12734498
26	0x3e6a5192	0.22882679
27	0x3dc8a3d7	0.09796875
28	0x3e132562	0.14369729
29	0xbe7d12ba	-0.24714175
30	0x3e63522b	0.22199313
31	0xbddf796a	-0.1091183
32	0x3e1eb50d	0.15498753
33	0x3e96c185	0.2944452
34	0xbecf6056	-0.40503186
35	0x3da11c93	0.07866778
36	0x3b94b6a1	0.0045383726
37	0x3de97d4f	0.11400854
38	0x3dc0a544	0.09406522
39	0xbed1dc5b	-0.4098843
40	0xbf27b682	-0.6551286
41	0xbe40df7e	-0.18835256
42	0x3e81471b	0.25249562
43	0xbd9d6e9f	-0.07687115
44	0x3c86ea26	0.016469073
45	0xbe98ce29	-0.29844788
46	0xbe54389a	-0.20724717
47	0xbde11f6b	-0.109923206
48	0xbeec5b17	-0.46163246
49	0xbdc79b1c	-0.09746382
50	0xbea712a7	-0.32631418
51	0xbd254df8	-0.04035756
52	0xbe130fb2	-0.14361456
53	0xbccc9a43	-0.024975901
54	0x3d654a15	0.055978853
55	0xbe666b7e	-0.22501943
56	0xbe51cdc4	-0.2048865
57	0xbe6952d1	-0.22785498
58	0xbe86feda	-0.2636631
59	0x3caf153c	0.02137243
60	0xbe3d6feb	-0.18499725
61	0x3e785608	0.24251568
62	0x3d2d89cf	0.042367753
63	0xbd4c00de	-0.049805515
64	0x3a897bf2	0.0010489209
65	0x3d8d3132	0.06894149
66	0xbd2be031	-0.041961852
67	0x3ab1e62a	0.0013572623
68	0x3ecd28b5	0.4007012
69	0x3d9d2fc8	0.07675129
70	0xbd7d1215	-0.061784822
71	0xbc919bee	-0.017774548
72	0xbdb21426	-0.08695249
73	0xbcd7c94b	-0.026341101
74	0x3d87e65c	0.066357344
75	0xbd1a1b83	-0.037623893
76	0x3dd13610	0.1021539
77	0x3e2ac724	0.16677529
78	0xbe093b5e	-0.13401553
79	0x3e0d6ffe	0.13812253
80	0x3d879259	0.066197105
81	0x3d6a5bd6	0.057216488
82	0xbe1a7c27	-0.15086423
83	0xba8a9e6b	-0.0010575777
84	0x3dfc309f	0.12313961
85	0xbf13d296	-0.57743204
86	0xbc63ffbc	-0.013915952
87	0xbde89a0f	-0.11357509
88	0xbc903915	-0.017605344
89	0x3db1ce71	0.08681954
90	0xbd9742f1	-0.07385815
91	0xbd05cbce	-0.032665066
92	0x3e1c842b	0.15284793
93	0x3e3d4ad8	0.18485582
94	0x3e88493d	0.26618376
95	0x3d29080d	0.041267443
96	0x3c1a90fd	0.009433982
97	0xbe3e41a0	-0.18579721
98	0x3de58efd	0.112089135
99	0xbde45b3d	-0.11150215
100	0xbccbdf85	-0.024886856
101	0x3e3f46c3	0.18679337
102	0x3ed5ac80	0.4173317
103	0xbe2e22a9	-0.1700541
104	0x3c5e8718	0.013582014
105	0x3e5f094a	0.21780887
106	0xbdb03301	-0.08603478
107	0xbe20e14f	-0.15710948
108	0x3b70adda	0.0036724717
109	0xbd91410b	-0.07092484
110	0xbe2bd11f	-0.16778992
111	0xbd013249	-0.031542096
112	0xbd9b1d43	-0.075739406
113	0xbdef7ac3	-0.11693337
114	0x3d410f35	0.047133643
115	0x3dcba884	0.09944251
116	0x3bf23aef	0.0073922793
117	0x3dd8ffd5	0.10595671
118	0xbc8677e2	-0.016414586
119	0x3d6ced82	0.057843693
120	0xbe2e0ba4	-0.16996628
121	0x3dc30893	0.0952312
122	0x3e63f39f	0.22260903
123	0x3da5818a	0.08081348
124	0xbdf7b035	-0.12094156
125	0xbcb743f7	-0.022371275
126	0xba98eff2	-0.0011668189
127	0xbd9243b9	-0.07141823
128	0xbe3b2716	-0.18276629
129	0xbc5d398b	-0.013502489
130	0x3d737b1c	0.059443578
131	0xbc2ec8d4	-0.010667998
132	0x3e7cefa8	0.24700797
133	0x3a5fc050	0.00085354317
134	0x3d085224	0.03328146
135	0x3e94e242	0.2907887
136	0x3e1ea795	0.15493615
137	0xbcfc10a4	-0.030769654
138	0xbd2bb5d8	-0.041921467
139	0xbed6dcb5	-0.4196526
140	0xbbb3ae12	-0.0054833973
141	0x3de459f3	0.11149969
142	0x3d63a41f	0.05557644
143	0x3caf450e	0.021395233
144	0xbd7e9823	-0.062156808
145	0x3e065024	0.13116509
146	0x3c66df72	0.014091359
147	0xbd53c6a3	-0.051703107
148	0xbd07cf15	-0.033156473
149	0xbefc6c35	-0.49301305
150	0xbcee9b60	-0.029126823
151	0x3ca6b440	0.020349622
152	0xbc962629	-0.018328743
153	0x3e0728d1	0.13199164
154	0x3e1dfa94	0.15427619
155	0x3e6a99ee	0.22910282
156	0xbcb831dc	-0.022484712
157	0x3edf998d	0.43671837
158	0x3e56808b	0.20947473
159	0x3da7ae6e	0.08187567
160	0x3a430eaa	0.0007440845
161	0x3bed7b00	0.0072473288
162	0xbddcaab6	-0.10774748
163	0x3e1e1df3	0.15441112
164	0x3dab4f0c	0.08364686
165	0x3d915219	0.07095737
166	0x3eaabc9a	0.33347017
167	0x3d8740ed	0.066041805
168	0x3da1cd04	0.07900432
169	0xbdaa8158	-0.083254516
170	0x3e1d9f24	0.15392739
171	0xbe39872a	-0.18117967
172	0xbd663c33	-0.056209754
173	0xbe0a1f0a	-0.13488403
174	0x3e155334	0.1458252
175	0xbd24849d	-0.040165532
176	0x3d9451e2	0.072421804
177	0xbe44278f	-0.19155715
178	0x3d5fd37f	0.054645058
179	0x3dd374fc	0.103250474
180	0xbed0abea	-0.4075616
181	0x3dd1fdf5	0.102535166
182	0xbd8174f6	-0.06321137
183	0x3c83872b	0.016055664
184	0xbdc8969f	-0.09794354
185	0xbd8ccfe0	-0.068755865
186	0x3e0cde71	0.1375673
187	0x3e2e0c6b	0.16996925
188	0xbddad298	-0.10684699
189	0xbddf97f9	-0.10917658
190	0x3defff24	0.11718586
191	0xba07da0c	-0.0005182333
192	0xbe659313	-0.22419386
193	0xbb6c3d77	-0.0036047378
194	0x3e694bba	0.22782794
195	0xbe511e23	-0.20421652
196	0x3da9e219	0.08295078
197	0xbda0e045	-0.07855276
198	0x3d68e556	0.056859337
199	0x3e1e34a8	0.15449774
200	0xbd959cbc	-0.07305285
201	0xbec170a1	-0.37781242
202	0xbd9a6bb5	-0.07540075
203	0xbd6e755f	-0.058217403
204	0xbd0e054e	-0.034673028
205	0x3dd7664c	0.105175585
206	0xbdfa9288	-0.1223498
207	0xbe992b17	-0.29915687
208	0xbe81893b	-0.2530001
209	0xbe11f281	-0.14252664
210	0x3c8b6ad0	0.017018706
211	0xbe99612c	-0.2995695
212	0x3ceb050a	0.028688926
213	0x3d074ed8	0.033034176
214	0xbe37d268	-0.17951357
215	0xbd84d839	-0.06486554
216	0xbd855aab	-0.06511434
217	0xbb4f993b	-0.0031677026
218	0x3df8e825	0.12153653
219	0xbd8ebde9	-0.06969816
220	0x3ecba39f	0.3977327
221	0xbe0f8392	-0.14015034
222	0xbcb1856f	-0.021670071
223	0xbbbaebac	-0.005704364
224	0x3cffaa90	0.03120926
225	0x3d04faf9	0.03246591
226	0xbee1b024	-0.44079697
227	0x3e07de20	0.13268328
228	0xbe460400	-0.19337463
229	0x3e86fe9c	0.26366127
230	0xbe37e6c2	-0.17959121
231	0x3d1da0e2	0.038483508
232	0xbeb4b17d	-0.35291663
233	0xbec3d3b9	-0.3824747
234	0x3e09d7b5	0.13461192
235	0xbd80fcb6	-0.06298201
236	0x3d429c8d	0.04751258
237	0xbde06043	-0.109558605
238	0x3d12157e	0.035665028
239	0xbcf57ea9	-0.029967623
240	0xbc76a012	-0.015052812
241	0x3dbcfc2e	0.09227787
242	0xbe85481b	-0.26031575
243	0xbe27097c	-0.16312212
244	0x3de88fc6	0.113555476
245	0x3c9eadd0	0.01936999
246	0x3e079497	0.13240276
247	0x3d48ecef	0.049054082
248	0x3b7782de	0.0037767212
249	0xbedd6a66	-0.43245238
250	0xbda9a487	-0.08283334
251	0xbd8c45a2	-0.06849219
252	0xbe9f4263	-0.31105337
253	0x3e2627be	0.16226098
254	0xbe7f3053	-0.24920778
255	0xbddd4368	-0.10803872

layers.1.bias f4 [64]
0	0xbd117776	-0.035514317
1	0x3d75e71b	0.060034852
2	0x3e13a3e2	0.14417985
3	0x3d267fa9	0.04064909
4	0x3da659c0	0.08122587
5	0xbdcbff5a	-0.09960814
6	0xbd8efd91	-0.06981958
7	0xbd9c8ef2	-0.07644452
8	0x3db7b991	0.08970941
9	0x3eb46bd6	0.35238522
10	0xbd8efe88	-0.06982142
11	0x3e6b93f4	0.23005658
12	0x3dafbf17	0.08581369
13	0xbc9d30dd	-0.019188339
14	0xbd9a53df	-0.075355284
15	0x3d3470a8	0.04405275
16	0xbd053827	-0.032524254
17	0x3d8f1696	0.0698673
18	0xbc63e782	-0.013910176
19	0x3e2dac45	0.16960247
20	0x3e69bf3f	0.22826861
21	0x3eb19a20	0.346879
22	0xbe06e313	-0.1317256
23	0xbd9d6712	-0.07685675
24	0xbd9d2066	-0.07672195
25	0xbd880378	-0.066412866
26	0x3d5eade5	0.054365057
27	0xbdbdc5e3	-0.092662595
28	0xbd1019ac	-0.035180733
29	0x3ddd2e6e	0.107998714
30	0x3d8e95f1	0.06962193
31	0x3e236f07	0.15960322
32	0xbdb9a0e4	-0.090638906
33	0x3cd1f3f4	0.025629021
34	0x3cf61dfb	0.030043593
35	0xbc926128	-0.017868593
36	0xbcfcac51	-0.030843886
37	0xbe01b009	-0.12664808
38	0x3db22363	0.08698156
39	0x3caf08cd	0.021366501
40	0xbdbd9c33	-0.09258308
41	0x3ed2143a	0.41031057
42	0x3e87050b	0.26371035
43	0xbd2a4036	-0.041565143
44	0x3d71b1d5	0.059007484
45	0xbe19778a	-0.14987007
46	0x3e6f56f5	0.23373015
47	0xbe2477e8	-0.16061366
48	0xbd5159e6	-0.051111124
49	0xbd9a6740	-0.075392246
50	0xbd99e376	-0.07514088
51	0x3ebbe769	0.3669999
52	0xbd9a7c76	-0.0754327
53	0xbe11fb1d	-0.14255948
54	0x3e315a97	0.17319714
55	0xbdbff27e	-0.093724236
56	0xbe2bffe6	-0.16796836
57	0xbe150935	-0.14554293
58	0x3cbfc245	0.023408065
59	0xbce93c7b	-0.028471222
60	0x3d0c4636	0.034246646
61	0x3e339671	0.17537858
62	0x3dfeb1dd	0.124362685
63	0xbe2b0a42	-0.16703132

output.weight f4 [4, 64]
0	0xbed17dbd	-0.40916243
1	0x3e765396	0.24055323
2	0x3dd296a2	0.10282637
3	0xbea02c99	-0.31284025
4	0x3e2ab391	0.16670062
5	0x3e8cd681	0.27507403
6	0x3e80d7d9	0.2516468
7	0xbe2c247f	-0.16810797
8	0x3e5672da	0.2094225
9	0x3dc72784	0.09724334
10	0xbe8e8152	-0.2783304
11	0x3e464ea6	0.1936594
12	0x3ebefb0e	0.37300915
13	0x3e77265d	0.24135728
14	0xbd1c5030	-0.03816241
15	0xbe5372c1	-0.20649244
16	0xbccf5851	-0.025310667
17	0x3e99cb84	0.30038083
18	0xbdf7f480	-0.121071815
19	0x3e1a1f6b	0.15051048
20	0x3de82d06	0.113367125
21	0x3e4dce37	0.20098196
22	0xbc59a43a	-0.013283784
23	0xbe96f715	-0.29485384
24	0xbe6d0659	-0.23146953
25	0xbdd67f46	-0.10473494
26	0xbe9c7838	-0.3056047
27	0xbe892dc4	-0.2679273
28	0x3e156c38	0.14592063
29	0x3e8e0f0e	0.2774586
30	0xbe8a63d5	-0.2702929
31	0x3e1aff1a	0.15136376
32	0x3f1843de	0.5947856
33	0x3ecb254e	0.396769
34	0x3e119fb5	0.1422108
35	0xbcba2b4c	-0.022725724
36	0x3e8160b7	0.252691
37	0xbe653d3d	-0.22386642
38	0x3e1649b9	0.1467656
39	0x3e7745a7	0.24147664
40	0xbd7f262c	-0.062292263
41	0x3e0ccbe1	0.13749649
42	0x3dc2246f	0.094796054
43	0x3dc0d05b	0.09414741
44	0x3e43789b	0.19088976
45	0xbe61b646	-0.22042188
46	0x3e0ca11c	0.13733333
47	0x3dc8d90e	0.09807025
48	0xbe994262	-0.2993346
49	0x3bf71e63	0.007541464
50	0x3c4eebb2	0.012629436
51	0x3e30dc50	0.17271543
52	0xbd0dcc9f	-0.03461897
53	0xbd983fda	-0.07434054
54	0x3dc89709	0.09794433
55	0x3e566045	0.20935161
56	0xbe730988	-0.23734105
57	0x3e891241	0.2677174
58	0x3ce3aebc	0.02779328
59	0x3e86c47e	0.26321787
60	0xbe3871f2	-0.18012217
61	0x3e036c7c	0.12834352
62	0xbd9a272d	-0.075270034
63	0x3db59ebf	0.08868169
64	0x3ef37b58	0.4755504
65	0x3e665d6a	0.22496572
66	0x3e3df16e	0.1854913
67	0xbe96560b	-0.2936252
68	0x38cd89c2	9.800821e-05
69	0x3ea31e26	0.3185894
70	0xbe81a8b6	-0.2532403
71	0xbda9441b	-0.08264943
72	0x3dd41e8c	0.10357389
73	0x3e02dbfe	0.12779233
74	0x3e344b8e	0.17606947
75	0x3e45b8a4	0.19308716
76	0x3e4d3277	0.20038782
77	0x3e89b129	0.26892975
78	0xbc5172ea	-0.012783745
79	0xbcbb4e02	-0.022864345
80	0xbdeb195a	-0.11479445
81	0x3e65f672	0.22457293
82	0x3d13dcd7	0.03609928
83	0x3dceb97b	0.10093971
84	0x3dc37182	0.09543134
85	0x3e8ed7b8	0.27898955
86	0xbe344bdd	-0.17607065
87	0x3eb46bc4	0.3523847
88	0xbd56a69e	-0.052404992
89	0xbcfc533b	-0.030801406
90	0x3dc84e7e	0.09780596
91	0xbe8c010b	-0.27344546
92	0xbe35b294	-0.17743903
93	0x3e8bb8fc	0.2728957
94	0x3eaf0a28	0.34187436
95	0x3df13bc0	0.117789745
96	0x3ed204e5	0.4101936
97	0x3eaf839c	0.34280097
98	0x3e55a84d	0.20864983
99	0xbd86dbfb	-0.06584927
100	0x3e9b99bf	0.30390736
101	0xbc32cc65	-0.010912989
102	0x3e55b0c5	0.20868213
103	0x3e8c92ef	0.2745585
104	0x3da60653	0.08106675
105	0x3e17388d	0.14767666
106	0x3d04920a	0.032365836
107	0x3e98b87a	0.29828244
108	0x3eadde9e	0.33958906
109	0xbe406d83	-0.18791775
110	0x3e0f7fb6	0.14013562
111	0xbd2400f1	-0.04003996
112	0xbe45ff35	-0.19335635
113	0x3d270ad2	0.040781803
114	0x3dd7b426	0.105324075
115	0x3dc40e21	0.095730074
116	0x3e9f6fc6	0.31139964
117	0xbc604974	-0.013689388
118	0x3e0fa17f	0.1402645
119	0x3f10a918	0.56508017
120	0xbe002e5f	-0.12517689
121	0x3d73a774	0.059485868
122	0xbe68ae9c	-0.22722858
123	0xbcf08757	-0.02936141
124	0xbe2e7dc6	-0.17040166
125	0x3d954563	0.07288625
126	0xbee68138	-0.4502046
127	0x3c4adcce	0.0123817455
128	0xbe323cc9	-0.17406
129	0x3e195336	0.14973149
130	0x3e67b605	0.22628029
131	0x3dbab155	0.09115855
132	0x3cd2604e	0.025680687
133	0x3e73cb3e	0.23808
134	0x3e802557	0.25028488
135	0xbe3e995f	-0.18613194
136	0x3e44a9c1	0.19205381
137	0x3e07c73b	0.13259594
138	0xbdecaa63	-0.11555936
139	0x3e801d1b	0.25022206
140	0x3e99d153	0.30042514
141	0xbd5e4788	-0.054267436
142	0xbd985c66	-0.074394986
143	0x3df1711b	0.11789151
144	0x3d00b19c	0.03141938
145	0x3dc9e184	0.09857467
146	0xbcfa48d0	-0.030552298
147	0x3d7bccda	0.06147466
148	0x3da40721	0.08009172
149	0x3e88f4c0	0.2674923
150	0xbe97f56e	-0.29679435
151	0x3e61b802	0.2204285
152	0x3d41619b	0.047212224
153	0xbdc2e56f	-0.09516417
154	0x3dbaeaad	0.09126792
155	0xbeb682f0	-0.35646772
156	0x3eae23ab	0.34011588
157	0x3eacc53f	0.33744237
158	0x3e9b0615	0.30278078
159	0x3cd96f8d	0.02654245
160	0x3e8adc63	0.27121267
161	0x3d0e3fd3	0.034728836
162	0x3ea1154c	0.3146156
163	0x3e41f567	0.1894127
164	0x3eb31366	0.34975737
165	0xbe815dc2	-0.25266844
166	0x3e13e754	0.14443713
167	0x3ee23c37	0.44186565
168	0x3d706045	0.05868556
169	0x3e1df37e	0.15424916
170	0x3dec2d8e	0.11532126
171	0x3d85c2e5	0.06531314
172	0x3ca1f8da	0.019771982
173	0xbe3f3957	-0.18674217
174	0x3e21b58c	0.15791911
175	0x3d8d9f9a	0.06915207
176	0x3ca3bb07	0.019986643
177	0xbe844c64	-0.2583953
178	0x3dd06507	0.101755194
179	0x3e67a7b2	0.22622564
180	0x3d3d0e41	0.04615617
181	0xbc703954	-0.014662106
182	0x3e010209	0.12598433
183	0xbdcc5325	-0.09976796
184	0xbe72c899	-0.23709334
185	0x3e1b10ba	0.151431
186	0x3c511ffa	0.012763971
187	0xbd894774	-0.06703082
188	0xbe42c5c2	-0.19020751
189	0x3e99bad0	0.3002534
190	0xbd5cdcca	-0.0539215
191	0xbcb3a704	-0.021930225
192	0xbe5dbfa7	-0.21655141
193	0x3e08e3dd	0.13368173
194	0x3dc9fce0	0.09862685
195	0xbe8d0b66	-0.2754776
196	0xbe4baa61	-0.19889213
197	0x3edeb66c	0.43498552
198	0xbe91daad	-0.2848715
199	0xbe4ba1d8	-0.19885957
200	0x3e967c53	0.29391727
201	0x3e323675	0.17403586
202	0x3ed42c41	0.41440013
203	0x3dc3ebfc	0.09566495
204	0x3eab43af	0.33450076
205	0x3d98360d	0.07432184
206	0x3d72be00	0.05926323
207	0xbe098d7e	-0.13432881
208	0x3dddb6bd	0.1082587
209	0x3e57d3b3	0.2107685
210	0x3e4fe76c	0.20303124
211	0x3e356c15	0.17717011
212	0x3c6b4b5d	0.01436123
213	0x3e947960	0.28998852
214	0xbdc0e832	-0.09419288
215	0x3e775e4e	0.24157068
216	0xbe1be150	-0.15222669
217	0xbef79c78	-0.48361564
218	0xbe8a20c2	-0.26978117
219	0x3e43a390	0.19105363
220	0x3e75b9de	0.23996684
221	0x3dba084b	0.09083613
222	0x3de42f58	0.111418426
223	0x3e02d5c7	0.12776862
224	0x3ee826ae	0.4534201
225	0x3df28dc9	0.118434496
226	0x3d8a5e21	0.06756235
227	0xbc4223ec	-0.011849385
228	0x3d278b0a	0.040904082
229	0x3e0e49bf	0.1389532
230	0x3ec0e281	0.3767281
231	0x3e11dd11	0.14244486
232	0xbeaef927	-0.34174463
233	0x3e244af4	0.16044217
234	0x3e253b17	0.16135822
235	0xbec4d664	-0.38444817
236	0x3ee37a0e	0.44429058
237	0xbe64d744	-0.22347742
238	0x3e131554	0.14363605
239	0xb9e23fe8	-0.00043153693
240	0xbdeedf22	-0.11663653
241	0xbe192a5c	-0.14957565
242	0x3ed9e432	0.42556912
243	0x3de137c0	0.109969616
244	0xbee81da8	-0.45335126
245	0xbe1cf616	-0.1532825
246	0x3dd50f6b	0.10403331
247	0x3f52f443	0.82403964
248	0xbded43fc	-0.115852326
249	0xbe6f832e	-0.23389885
250	0xbf20ba37	-0.6278414
251	0xbc047256	-0.0080839
252	0xbdeaae61	-0.114590414
253	0x3d65b6b3	0.05608244
254	0xbeb39864	-0.35077202
255	0x3c747b60	0.014921993

output.bias f4 [4]
0	0x3e88b8b6	0.26703423
1	0x3e6c97dd	0.23104806
2	0x3e039565	0.12849958
3	0x3e0a3ef8	0.13500583
