checkpoint_final.pth (torch_old, 28545 bytes, 6 tensors)

layers.0.weight f4 [64, 37]
00000000: fc0c debc 0276 21bd ec92 abbc cd11 3ebd
00000010: b5b0 dcbd cd22 9d3d 9825 dfbd a10c 473d
00000020: a6e9 8f3d 243a 8ebd b4ad d83d 5d76 2cbe
00000030: aede b7bd 76c4 8abd 1af4 72be b060 ab3d
00000040: c847 273d 972e 72bd fe5b 15bd 5bde 44bd
00000050: 18a7 353e 1759 3a3c 2d11 3dbd a6e1 aebd
00000060: fa64 6fbe de4e 5abc a00b 083d 9f6b 203d
00000070: 3c79 01be 67fa a5bd ae04 613c 8ba3 fb3c
00000080: 4199 c6bd 07e2 39bd d71a 4f3d ea0e cabe
00000090: 66a8 833c 93b6 063e 9b3c 4abd b99d 813e
000000a0: 9986 b3bb b35b fdbe f4b3 febc 9411 94be
000000b0: 124a ba3d c9ee 74be 1d92 e6be e942 96bb
000000c0: 6ba9 db3d b320 003d 8baf 56bc edd4 16be
000000d0: de62 263c 0a6d c43d fc56 a13d b1e3 b1bb
000000e0: 00e0 59bd 6346 4fbd 7c98 483c deca 3fbe
000000f0: 169d 33be 4476 19be 71e7 cbbd 96ca 943d
00000100: 20bc 273e aaf0 76be ec21 e23d 52d4 6bbe
00000110: e346 593d 92f6 593e a823 913e 5b84 8cbd
00000120: 0088 43bb c53c 203d cb0c 2fbc 7cc2 ee3e
00000130: 0d34 cabd b82d 3abf c3a2 debe c938 4abf
00000140: 5ec8 25bd d161 753e 9aa9 13be b17f 01bf
00000150: 5d3e 9c3d 4381 e9bd fd6d 903d 7e4e 4cbe
00000160: 5213 89be 667f 42be 8b3e 673d 8d2c 18bb
00000170: a3b2 9bbd 17a9 9dbd c1b4 a6be 8ab7 053e
00000180: d086 bb3d ef46 c8be a8f5 ccbc 40b9 32bf
00000190: 8267 7e3e a204 1b3e 6e4e abbb 1b5f dbbe
000001a0: 543a 15bf f3f0 29bf 9397 533e 8fec d2bd
000001b0: 0a92 bfbe 25cc 943d bca6 19bc c774 e33d
000001c0: a646 4e3e 856b 9cba b059 783c ed04 bebd
000001d0: 73dd f0bc 1e44 153e 10d2 17bd a5f4 833b
000001e0: 92a5 b5bc 600d ba3e 6073 f1be 4119 0bbf
000001f0: 7d80 1ebf a265 f6bf f48c 49bd ae51 c3bd
00000200: ca92 36bc cf5c a6bd f5e1 3fbd 2a5a 503c
00000210: cac3 a93c 3ef7 c63c 2da6 f93d 36f5 1d3e
00000220: 0590 123e 15f9 9cbc 45a8 863d 9bcb 273e
00000230: dd7a ca3d ce9f 723d 12af 033e 3fb7 e63d
00000240: 9549 823d 541c a3bd b268 40bd 8dfd 8c3b
00000250: add1 74bd 9735 883c 8103 15bc 7970 0ebd
00000260: 0138 0f3c e8cb 003f 0dc8 4abf 904b 59bf
00000270: 2300 91bf e71a 18c0 e92b 603c c789 7b3d
00000280: 7e9b 4f3c 33ec 39bc e563 0bbd 05ef ec3b
00000290: ca31 d53c 827f 813d 9d88 c23d 118c d63d
000002a0: 9f1a df3c 545b 393d d830 a63d 0395 143e
000002b0: aa5c b03d 9d6d 213e 2880 ac3d 59a2 e03d
000002c0: bf3e 3d3e 62db c33d 5f03 1c3e c94f c03d
000002d0: 0878 1c3e 4966 493e 0fca 823d 6e2b a03b
000002e0: 093c 56ba c421 43bd b77b 67be 3771 ef3d
000002f0: fee9 1fbe 1c5a 263d 9a08 373e 67bc eabd
00000300: ac58 ffbd 694a 25be c8b2 84bd dfad 233d
00000310: fefe 32bd 7080 a5be 5b95 d5bd 48f6 94be
00000320: 84ae 96bd a349 17be b002 c93d ae5c 9abe
00000330: 39c5 9cbe b858 943e 2e26 a0be 2a37 13be
00000340: 4f5a bbbc 5c93 993d bf46 3abd 7196 14be
00000350: 8d8b 8dbe a8e4 9b3e 2530 a4be 10d4 853d
00000360: f540 563d 6b8b 78be 2943 43be 1f12 7d3e
00000370: 7bd3 65be 1a74 3ebd 2807 4b3e b9ea 6dbc
00000380: 8d92 1dbe e707 00bf 9242 a2be 0a1c 3abe
00000390: 07e6 30be 229d 183d e996 9bbe 5304 05be
000003a0: fd56 ff3d e4e9 643d a744 16bd 4cb0 5dbe
000003b0: a00a 44be d5a0 16be a590 7f3d 6ab2 d33b
000003c0: 0689 25be 43a7 8e3e 027d 743d c99b 66bd
000003d0: dd03 0bbd 44ab 0dbd edfe 743e 8abd 7bbe
000003e0: b23a 653c 9168 553d a22e e3be d1b8 0abe
000003f0: a2b0 c2be 707a 92bd ce7c 4e3e ae07 77be
-0.0271058 -0.03941918 -0.020944081 -0.046403695 -0.10775892 0.07672653 -0.10895842 0.04859603
0.07026987 -0.06944683 0.10580006 -0.16842027 -0.0897802 -0.06775753 -0.2372593 0.08368051
0.04083994 -0.059126463 -0.036464684 -0.048063617 0.17739522 0.01137378 -0.04615896 -0.08539133
-0.23378363 -0.013324467 0.03321421 0.039165135 -0.12643903 -0.08104401 0.013734026 0.030717632
-0.096971996 -0.045381572 0.050562706 -0.39464504 0.01607151 0.13155584 -0.049374204 0.25315645
-0.005478692 -0.49484023 -0.031091668 -0.2891966 0.09096159 -0.23919214 -0.4503335 -0.004585613
0.10725673 0.031281184 -0.013103376 -0.14729662 0.010155408 0.0959111 0.07877919 -0.0054287543
-0.05319214 -0.050604235 0.012243386 -0.18729731 -0.17540392 -0.14986521 -0.09956253 0.07265203
0.16380358 -0.24115244 0.11041626 -0.23030213 0.05304612 0.21285465 0.28347516 -0.06861182
-0.00298357 0.039120454 -0.010684202 0.46632755 -0.09873209 -0.7272601 -0.43483552 -0.789929
-0.04047429 0.23963095 -0.14420167 -0.50585467 0.07629082 -0.11401608 0.070522286 -0.19951817
-0.26772553 -0.18993911 0.05645613 -0.0023219914 -0.076024316 -0.07698267 -0.3255978 0.13058296
0.09156573 -0.39116618 -0.025019482 -0.6981392 0.24844173 0.15138486 -0.0052278554 -0.42845997
-0.58292127 -0.66383284 0.2066329 -0.10299026 -0.37416106 0.072655 -0.0093781315 0.11106258
0.20144138 -0.0011933899 0.015158102 -0.09278283 -0.02940247 0.14576766 -0.037065566 0.0040269666
-0.022173677 0.3633833 -0.47158337 -0.5433541 -0.6191481 -1.9249766 -0.04920669 -0.095370635
-0.011143396 -0.081231706 -0.04684635 0.012716809 0.020723242 0.024287816 0.12189899 0.15425572
0.14312752 -0.01916174 0.065750636 0.16386263 0.098867156 0.059234433 0.12859753 0.1126542
0.06361691 -0.079643875 -0.046974845 0.0043026865 -0.059770275 0.016627116 -0.009095074 -0.03477523
0.00874138 0.50311136 -0.79211503 -0.84880924 -1.1328167 -2.376642 0.013682344 0.06141069
0.01267135 -0.011347818 -0.034030814 0.007230642 0.026024718 0.06323148 0.09498713 0.10475934
0.027234374 0.045253113 0.08114785 0.14509968 0.08611424 0.1576447 0.08422881 0.10968465
0.18480967 0.09563328 0.15235661 0.09390218 0.15280163 0.19667925 0.06386196 0.0048879897
-0.0008172398 -0.047639623 -0.22605787 0.11691516 -0.15616605 0.04061328 0.17874375 -0.11461716
-0.12468085 -0.16141666 -0.06479412 0.03996074 -0.04370021 -0.32324553 -0.10428878 -0.29094148
-0.07357505 -0.14774184 0.09814966 -0.30148834 -0.3061922 0.28973937 -0.3127913 -0.14376512
-0.02287021 0.0749881 -0.045477625 -0.14510514 -0.2764553 0.30447888 -0.3206798 0.06534588
0.05230804 -0.24271934 -0.19068588 0.24713944 -0.22443955 -0.04649744 0.19826949 -0.014521294
-0.15387936 -0.5001206 -0.31691414 -0.18174759 -0.17275248 0.03725923 -0.30388573 -0.12989931
0.124677636 0.055887118 -0.036686566 -0.21649283 -0.19144678 -0.1470979 0.062393803 0.0064604776
-0.16165552 0.27861986 0.05968953 -0.056300912 -0.03393923 -0.03458716 0.23925371 -0.24584022
0.013991045 0.052101675 -0.44371516 -0.13547064 -0.38025385 -0.07152259 0.20164797 -0.24124023

layers.0.bias f4 [64]
00000000: bfad 993d 52ca 53bc e560 5dbd f1f9 1cbd
00000010: 3466 a43e 9d9d aabd a808 dabd 0106 773d
00000020: 0a6e b83d 2d87 6ebe 9ad7 2c3e b658 393e
00000030: fbb6 f93d 5f10 6fbb 0100 a8bd 5d6d 01be
00000040: d605 043d 66b0 00be e5ce c5bd cf7b 80be
00000050: 53d2 42be 3eb6 cc3d a88a babd a441 ddbd
00000060: 4380 82bc 414f df3d 479b 393d ae98 30be
00000070: c655 ec3b 45e3 b73d b981 173d 4053 89be
00000080: 5013 083e d142 383c 5d14 7cbe 09cd 453d
00000090: cf7c 3fbc 7c58 9d3c 2c99 66bd e644 1bbe
000000a0: 0445 21be 9611 debd dc88 d9bd f425 b03e
000000b0: f36b 1abd 22da 12be 799d 83bd f02d 67be
000000c0: 7a02 bfbe 7d1a 1e3d 5f68 e5bd 890b 813c
000000d0: 93ab 693d 8364 f1bd 323a 31be 11e4 3ebe
000000e0: 991b a43d 2ad9 debc 17de 83bc 76c2 b9bd
000000f0: 3e2e b3bd 2757 8d3d 8b07 d33d 11a8 b2bc
0.075038426 -0.012926655 -0.054047484 -0.0383243 0.32109225 -0.083308436 -0.10646182 0.06030846
0.09005363 -0.23293753 0.1687912 0.18100247 0.12193104 -0.0036478264 -0.08203126 -0.12639375
0.032232128 -0.1256729 -0.096586026 -0.25094458 -0.19025545 0.099956974 -0.09108478 -0.108035356
-0.0159303 0.10903788 0.0453141 -0.17245743 0.0072123734 0.08978895 0.036988948 -0.26821327
0.13288617 0.011246399 -0.24617143 0.04829124 -0.0116874715 0.019207232 -0.05629842 -0.15163001
-0.15748984 -0.10843198 -0.10621807 0.34403956 -0.037700605 -0.14341024 -0.0642652 -0.22576118
-0.37306577 0.03859948 -0.11201548 0.01575257 0.05704839 -0.11786749 -0.17307356 -0.18641688
0.08013076 -0.027203161 -0.016097112 -0.090702936 -0.08749054 0.069013886 0.10304173 -0.021808656

layers.1.weight f4 [64, 64]
00000000: a576 82be 2388 a13e 016f a03e 9d61 c83e
00000010: 0a3a 0abf 9d95 3ebf a947 23be 0f15 d5be
00000020: c8bf 993e bef4 ccbc 81b3 af3d 13ab f6be
00000030: a7e5 c6bd 758f a83e e77e fa3c 56a9 84be
00000040: f7fa 51be 28ef 23bf c524 933e b8f0 c5be
00000050: 2e09 b9be 82f5 febd 8fa3 a0be d073 82bd
00000060: 42b5 4ebe 0d98 493e 9c7b b13e 8090 ddbe
00000070: 81a3 b63e db6f 80be ff57 9c3e d7d9 8bbe
00000080: 0773 273e eaf9 373e 00a1 c3be 1374 25bf
00000090: 0a93 d7bd 6800 e63e 9e16 f7bc 6a4d 34bf
000000a0: 2a6d 41bf b46d efbe d01c 493e 5986 863b
000000b0: 49a6 69bd 6739 c5be 8629 71be 02d0 b6bd
000000c0: 42b9 bbbe 3e3f c0be 5ecd 92be bbb1 c7be
000000d0: e1c7 79be 7b08 d0be 825c 403d 09b6 01bf
000000e0: 4a25 32be 88c8 bcbe bcc3 4bbf bc82 6bbe
000000f0: 7c75 13bf 3404 aa3e 427e 0dbf 90e7 f0be
00000100: 1118 5dbc cea0 3a3d 20c2 8fbd 8fde e0bd
00000110: 1d1d e03e 0d98 103d 5e91 25be 196a dc3c
00000120: 99ce 1fbd bbe7 4cbe 002d 1b3d 327f 85be
00000130: 2a75 9d3d a82c 943c 2ddb 163c 0465 c6bd
00000140: 3eda 453e 4c84 c3bc 04e5 9dbc f7b0 9bbd
00000150: 3c81 273e 6945 0abf 5293 68be d8f0 433d
00000160: 7d47 d9bd 9826 0dbf abc5 53be 5eda 373e
00000170: 9f50 023e 311b 0a3d 6d30 44be 248c 323e
00000180: 8357 403d d2f5 9dbc a531 953d 2aa3 143e
00000190: 6e30 17bd a888 723d bcb0 023f eed6 f8bd
000001a0: 357e c13d 3216 1fbc 72ca e53d d8f1 8fbd
000001b0: 358f 26bd 2aa2 213c 3d28 72bd a462 0bbe
000001c0: 3506 f7bd 8307 8fbd 9e76 273e 68d0 72bd
000001d0: 9863 273a 0aa2 c3bd 2339 013e f461 4abd
000001e0: 26c5 14be 7341 80bd 6d0e 513e caac 363e
000001f0: c61f e1bd 6dc4 88bd 7b88 f13b a41a ffbc
00000200: f8d9 14bd 8263 05bc 4ef9 753d 8b52 04bf
00000210: 3da3 90bc 3fd3 183e 2c7c 9f3c 40c5 36be
00000220: 69a7 8e3e 61e0 6a3d 3e89 78be a1c1 26bf
00000230: dc4b 343e 4dad 763e a6d7 a9bc 1082 50be
00000240: 609b cabd 3216 0fbe 0921 aa3d 5281 3bbd
00000250: 48f7 623d ae7a 0d3e 9e5e 92be f9a1 813e
00000260: dafb e4bc 7e5d c13d 24d7 e23d 674c a13d
00000270: a390 753e 6386 253f 4552 493d ac13 d53d
00000280: 8670 8e3d 3c80 87be 231a 1bbe 8a9e 8e3d
00000290: 8ac9 0b3e 578c 1b3e 49a5 113d a6b8 ab39
000002a0: 9ce4 8ebd 1d1e 743d 7750 fa3c c9f7 33be
000002b0: e01f 68be 4b15 ae3d 9691 bcbb 2062 263d
000002c0: f717 2a3e 30a2 d7bd da38 9fbe 240b 72bd
000002d0: e095 09bf 2ff5 3f3e cae6 f53c d90f dd3d
000002e0: 638a 17be 9486 ecbd 64e7 f9bd 3be7 b2bd
000002f0: 9aec 1abd 3dea 18be 2573 4abe 0c19 9fbd
00000300: b2cc d1bd b699 8cba 23bd 823e bd97 a2be
00000310: 8037 833d 1f07 42be a84c 763d 15fe 01bd
00000320: e431 673e 2fe8 0a3d 1512 cf3d 96c9 6c3e
00000330: 67a1 e1bd 2a2d 3c3e 293e 3abe ac44 96be
00000340: 0e4e d0be 5835 4abe 47e2 3bbe 0de5 26bf
00000350: 234c 883e c3f4 36be d5d6 e7be 2684 a2be
00000360: 4963 3cbe 4a9a 293d 2358 853e 3b1e 11be
00000370: 36fc ba3e b5c2 2a3d 4e4e 053e 2b83 dbbd
00000380: b694 8cbd 5d50 05be 9ed9 12bf 60cf 833c
00000390: 492d 62be 60c8 923e 3cee ff3d 1923 45be
000003a0: e640 093e 3d93 9abd 02fc af3e c455 2bbe
000003b0: 4c3a 74bd 229e 9c3b b377 6bbe eca8 3a3d
000003c0: 47c2 c8bc 7b12 403e e366 f33d 6884 a3bd
000003d0: a0bc b33e ae25 97be 5e2b 4abd 9a9a 9f3d
000003e0: 3779 50bd 0d7d efbe 5c7f 4ebb 3cd8 e73d
000003f0: 1439 f3be fc33 c8bd f8e2 1dbe b959 9c3d
-0.25481144 0.31549177 0.3133469 0.39136973 -0.5399481 -0.7444704 -0.15945305 -0.4161763
0.3002913 -0.025019046 0.085791595 -0.48177394 -0.097117715 0.3292195 0.03057809 -0.25910443
-0.20505892 -0.640368 0.2873899 -0.38660216 -0.36139816 -0.12449171 -0.31374785 -0.06369746
-0.20186332 0.19686909 0.3466462 -0.43274307 0.3567162 -0.2508534 0.30535886 -0.27314636
0.16352473 0.17966428 -0.3820877 -0.6463024 -0.10526092 0.44922185 -0.030162152 -0.70430624
-0.75557196 -0.46763384 0.19639897 0.004105371 -0.057043348 -0.38520357 -0.23550996 -0.08926393
-0.36664778 -0.3754825 -0.28672308 -0.39002785 -0.24392654 -0.4063147 0.046963222 -0.5066839
-0.17397037 -0.36871743 -0.7959554 -0.2299909 -0.5760114 0.33206332 -0.5527078 -0.47051668
-0.013494507 0.04556351 -0.07019448 -0.1097995 0.43772212 0.035301257 -0.16168734 0.02690606
-0.039015386 -0.20010273 0.037884712 -0.26073605 0.07688363 0.0180877 0.009207529 -0.09687236
0.19321534 -0.023866795 -0.019274242 -0.07602113 0.16357893 -0.5401216 -0.22712448 0.04783711
-0.106093384 -0.55137014 -0.20680873 0.17954394 0.12726067 0.033717338 -0.19159098 0.17436272
0.046958458 -0.019282255 0.072848596 0.14515367 -0.03691142 0.059212357 0.51050925 -0.121503696
0.094479 -0.009709882 0.11220254 -0.0702855 -0.040663917 0.009865323 -0.059120405 -0.13611847
-0.12061731 -0.069838546 0.16353843 -0.059280783 0.0006385385 -0.09552391 0.12619452 -0.04940982
-0.14528331 -0.062624834 0.20415659 0.17839351 -0.109923884 -0.0667809 0.007371006 -0.031140633
-0.036340684 -0.0081414 0.06005221 -0.5168845 -0.017655963 0.14924334 0.01946839 -0.17848682
0.278621 0.05734289 -0.24271104 -0.65139204 0.17607063 0.24089547 -0.020732712 -0.20362115
-0.09892917 -0.1397331 0.08307082 -0.045777626 0.055411607 0.1381633 -0.28587812 0.25318888
-0.027952123 0.0944166 0.11076191 0.07875901 0.23980956 0.6465818 0.049150724 0.10404143
0.06955056 -0.26465023 -0.15146689 0.06963833 0.136511 0.15190254 0.03555802 0.00032753235
-0.069771975 0.05959903 0.030555947 -0.17574991 -0.2266841 0.08500155 -0.00575466 0.040620923
0.16610704 -0.10528982 -0.31098062 -0.059092656 -0.53744316 0.18745874 0.030017275 0.10794038
-0.14798884 -0.11549106 -0.122023374 -0.0873551 -0.037823297 -0.14933105 -0.19770487 -0.07768449
-0.10244121 -0.0010726962 0.25534925 -0.31756392 0.0640707 -0.18948029 0.0601317 -0.031736452
0.22577626 0.033912834 0.10110871 0.23123774 -0.11017113 0.18376604 -0.18187775 -0.29349267
-0.4068455 -0.19746912 -0.18348037 -0.65193254 0.26620588 -0.17866807 -0.4528109 -0.31741446
-0.1839725 0.041406907 0.26043805 -0.14171688 0.36520547 0.041689593 0.13018152 -0.10718378
-0.06864302 -0.13018937 -0.5736331 0.016090095 -0.22087587 0.286685 0.124966115 -0.1925167
0.13403663 -0.07547615 0.34371954 -0.16731936 -0.05962591 0.004779593 -0.2299488 0.045571253
-0.024506701 0.1875705 0.118848585 -0.07984239 0.35104847 -0.29520935 -0.049357764 0.0779316
-0.05089685 -0.46775094 -0.0031509018 0.1132054 -0.47504485 -0.0977554 -0.15418613 0.07634301

layers.1.bias f4 [64]
00000000: 0607 c43c 1b7e 373e 2d9d 7f3e b46d c7bd
00000010: 548f 813d bfdf 87bd fb51 d5bd 1f3b 0abe
00000020: 1f78 f33e 333a 263f 7418 0fbd 8b06 f23e
00000030: c2a0 453e 1053 98bd ff37 5b3c 5b6d 8b3d
00000040: 1ea9 c9bc b1b0 4c3e 7ffe 0e3c dd43 0c3f
00000050: 96e8 f43e 5242 1b3f 03a2 40be dfd9 b1bd
00000060: 1cc4 e7bd c020 91be e265 02be 1ce5 00bd
00000070: 65a6 77bd 6074 ab3d 4576 c73c 13ed d83e
00000080: 334e 22bc a4e7 973e ac10 583e b65e bcbc
00000090: 924c 0bba dbb9 bcbd 9603 113e 5264 69bd
000000a0: 6d9c 8ebd 2fa8 3b3f be3c e43e 9e2d d5bd
000000b0: 3685 503e f226 6fbe 81b9 063f 6828 e1bd
000000c0: ca17 48be 03b2 49be 566d f4bd 6153 203f
000000d0: 1228 853c 8ab8 1f3e aa1b 1a3f bdd6 6c3b
000000e0: 1fe0 86be b120 1fbe 4e66 483d 3749 6e3d
000000f0: 16bc 9ebc 52bd c93e 2b05 9f3c c379 26be
0.02392913 0.17919199 0.24962302 -0.09737721 0.06326166 -0.06634473 -0.10416027 -0.13499115
0.47552583 0.64932555 -0.03493543 0.47270617 0.19299605 -0.07437718 0.01338005 0.06807967
-0.024616774 0.19989277 0.008727669 0.5479105 0.478337 0.6064807 -0.18811803 -0.08684134
-0.11316702 -0.283453 -0.12734178 -0.031468496 -0.06046142 0.08371806 0.024348387 0.42368373
-0.009906339 0.29668915 0.2110011 -0.02299438 -0.0005313839 -0.092151366 0.14161524 -0.05698044
-0.069634296 0.733035 0.44577593 -0.104090914 0.20363316 -0.233547 0.52626806 -0.10994035
-0.19540325 -0.19696812 -0.11934917 0.62627226 0.016254459 0.1559774 0.6019846 0.0036138736
-0.26342866 -0.15539815 0.04892569 0.058175292 -0.019376796 0.39402252 0.019411644 -0.16257386

output.weight f4 [4, 64]
00000000: f162 08bf d31e 053e 2daa 843e af9b 2c3e
00000010: 1aa6 6e3e 555c f43e fee0 9f3e b566 ffbe
00000020: ce23 113e faf7 393e 37c1 2dbf 347d 6e3e
00000030: b630 d23e 4773 84be b708 e2bd 37f0 953e
00000040: 4cf2 263d 5760 4f3e fb85 14be aaee 693e
00000050: 9493 283e a8ba 783e 3511 1abd b3d2 f63d
00000060: 3cf4 aabd eddb 9abe 8a2e 81be e41c 86be
00000070: 7f4c e23d fe6f 8c3e 37f8 243d 389e 333e
00000080: 9eac 043e e837 7c3e eb0a c53d e237 0bbd
00000090: 9889 ca3e b2a4 61be 2766 173e 646c 923e
000000a0: 478e ef3e 1b96 663e 2c53 1a3e edf2 903d
000000b0: b482 2e3e cc07 2ebe 681f 4c3e 5d14 b93e
000000c0: b22a 4bbe 0bfd 51bd fbb5 34bd 04b3 843e
000000d0: 8d23 8c3c de09 1d3e 0d59 5f3e 54ec 413e
000000e0: 9529 8fbe 8178 16bd 9b22 723d a016 4a3e
000000f0: 1277 ebbe 855f fd3d 9a80 af3e 4e6a 953d
00000100: 5b1e c93e 49cf 973e 01fa 833e 2fc0 c9be
00000110: 5a96 3e3d 405c f93e ffba 0fbd ec64 bfbd
00000120: 2751 4a3e 2196 423e e268 5f3e cc7e 4e3e
00000130: 1885 d33e 5327 bebd e92d 18be 94e8 ca3e
00000140: 6159 ce3d a44f 9f3e 7e5b 1e3e 3a4b 413e
00000150: 5707 093e 8eb8 a53e d676 12be a482 263e
00000160: 5ba5 51be 9cbf eabe 26fd 49be 47ba 773d
00000170: d216 ef3d 8bb1 d13e 001f c13e e73a 853e
00000180: bfb1 e03c e849 fd3d 7455 e43d 9721 2cbe
00000190: ae35 ae3e bcca 3c3d a0e9 783e 17aa d63e
000001a0: 477d c73e beba 803e d362 5e3e 783f 3b3d
000001b0: a01e 83bd 0565 5bbe d89d 173e 9ac4 d73e
000001c0: efc1 3bbd e3e3 29be f1a5 50be b876 3d3e
000001d0: 00a1 bdbd b490 c43d 328a 413e 9f4c 543e
000001e0: 72e4 8bbd 7edf 24be 1bf7 f0be 9884 d33d
000001f0: 03d3 15be 743d 873c c842 40bf 4eb2 5bbc
00000200: 7f04 cebe 0420 113e 742e 8a3e 000c b03e
00000210: c93a 9b3e 1a06 5d3e f9e6 0c3e 1e7c 11be
00000220: aa64 8b3e 796b 603e 3330 83be e39d 3b3e
00000230: f077 283d 127c 36bc 61db d2be c929 a43e
00000240: 5932 20be b4ab e6bc 8b95 9a3d f5a3 053e
00000250: 7305 073e b210 ab3e b4cd a9be 7372 b03e
00000260: a01d b93e 4143 0bbe 888b a23d 647d 57be
00000270: 4cb4 5d3e 9a1f 923e 301a 173f d504 c33d
00000280: 3cc6 0d3e 766d 433e e26c 583e 750c a83e
00000290: 4cc7 cf3d d57e 3e3d 4844 a33d 2945 fa3e
000002a0: 6740 443f 2264 843e d565 473e 3658 d43e
000002b0: 5b18 d33d 3e46 67bd 53de 723e bfda 8fbe
000002c0: 3a72 9d3c 9e03 bfbe 375f 4bbd 8707 9b3e
000002d0: 2558 eabe 6d4e 2b3e 2586 433e 4f44 bb3d
000002e0: 494c 11be 3243 17bf 3e1b 06bf ab5e 743e
000002f0: a86f 1bbe e165 b33e 51d9 9abe 04a7 b3bc
00000300: d916 16bc 0130 793e 57c3 663e 14b6 dbbd
00000310: 334b b8be cd81 d43e 391d 96be a6d0 3dbe
00000320: 6541 793e f916 783e 1290 0c3d ed76 633e
00000330: 80f0 0a3e 266c a93e 6d9d ebbc 44e8 843d
00000340: 0668 b03e 6995 ef3d f372 c63e 731f 813e
00000350: c3c5 033e a14c c93e db0a 5fbd 749d c83e
00000360: 609d afbe 4229 01bf afb8 38be 526d 493d
00000370: b0ce b83e b3ae 193e 53cd c6be a1ef 203e
00000380: 7806 1bbe 1a34 153e 6f34 e1bc d785 743d
00000390: 547c fe3d 3dfa 583e b132 9c3e 7c59 673e
000003a0: db1f 6d3e 3799 683e b987 2e3e dc22 12bf
000003b0: 6221 9b3e 3d21 23be d897 343e e06b a6be
000003c0: 4bfc b6bc 0cc9 aabe a267 963e 08b9 6b3e
000003d0: 609f 12bf 2ee3 4a3e 15ea 353e 0f34 043f
000003e0: 2bb6 4fbe bb7c 2bbe 45f3 b1be 3a80 45bd
000003f0: 8200 95be b0f2 373e 963f c3be 0046 6aba
-0.5327597 0.1300004 0.25911084 0.16856264 0.2330555 0.47726694 0.31226343 -0.49883047
0.14173815 0.18161002 -0.6787295 0.23289949 0.41052788 -0.258692 -0.110368185 0.29284832
0.040758416 0.20251594 -0.14504234 0.2284495 0.16462547 0.24289954 -0.037614066 0.120519064
-0.08347365 -0.30245915 -0.2523082 -0.26193917 0.11049747 0.27429193 0.04027578 0.17540824
0.12956473 0.24630702 0.09621223 -0.03398884 0.395581 -0.22035483 0.14785062 0.2859832
0.46788236 0.22518198 0.1507079 0.070775844 0.17042047 -0.16995162 0.19933856 0.36148348
-0.19840506 -0.05126671 -0.044118863 0.25917828 0.017106796 0.15335795 0.21811314 0.18937808
-0.27961412 -0.036736015 0.059115034 0.19735193 -0.4598928 0.123717345 0.34277803 0.07295667
0.39280972 0.29650334 0.25776675 -0.39404437 0.046530105 0.48703194 -0.035090443 -0.09345421
0.1975752 0.19002582 0.21817353 0.20165557 0.4131248 -0.09284844 -0.14861263 0.39630568
0.100756414 0.31115448 0.15464589 0.18876353 0.13381706 0.32367367 -0.14303145 0.16260773
-0.20473234 -0.4584931 -0.19725475 0.060480382 0.116742745 0.40955767 0.37718964 0.260215
0.027428506 0.12367612 0.111491114 -0.16809689 0.3402533 0.04609178 0.24307871 0.41926643
0.38962767 0.25142473 0.21717386 0.045714825 -0.06402326 -0.21425255 0.14806306 0.42142183
-0.045839246 -0.16590838 -0.20375802 0.18502319 -0.09259224 0.095979124 0.18900374 0.20732354
-0.06830682 -0.1610088 -0.47063527 0.103280246 -0.14631276 0.016508795 -0.751019 -0.01340921
-0.40237805 0.14172369 0.26988566 0.34384155 0.30318287 0.21584359 0.13759984 -0.14207503
0.27225238 0.21915998 -0.2562271 0.18321948 0.041130006 -0.011137979 -0.41182998 0.3206313
-0.15644206 -0.028158046 0.07548054 0.13050826 0.13185672 0.33411175 -0.33164752 0.34462318
0.36155415 -0.13599874 0.0793677 -0.21043926 0.21650809 0.28539735 0.59024334 0.09522406
0.13845152 0.19084725 0.21135285 0.32822004 0.10145435 0.046507675 0.07972008 0.4888089
0.7666077 0.25857645 0.1947244 0.4147355 0.1030738 -0.056463473 0.23717622 -0.28096578
0.019219507 -0.37307447 -0.04965135 0.3027918 -0.45770374 0.16729136 0.19094141 0.09143888
-0.14189257 -0.59086907 -0.5238532 0.23864238 -0.15179312 0.35038665 -0.30243924 -0.021930225
-0.009160721 0.24334718 0.22535454 -0.10728088 -0.35994872 0.4150528 -0.2931917 -0.18536624
0.24341352 0.24227513 0.034317084 0.22213335 0.13568306 0.33090323 -0.02876159 0.06489614
0.34454364 0.116984196 0.38759574 0.25219306 0.12868409 0.39316276 -0.054453712 0.39182627
-0.34299755 -0.5045358 -0.18039201 0.04917652 0.3609519 0.15008049 -0.38828525 0.15716411
-0.15139186 0.14570656 -0.027490823 0.059697952 0.124260575 0.21189208 0.30507424 0.2259273
0.23156683 0.22714697 0.17043962 -0.5708444 0.30298907 -0.15930648 0.17636049 -0.32504177
-0.0223371 -0.33356512 0.2937594 0.23019803 -0.57274437 0.19813225 0.17765076 0.51641935
-0.20284335 -0.167468 -0.34755912 -0.04821799 -0.2910195 0.17963672 -0.3813445 -0.00089368224

output.bias f4 [4]
00000000: 2f19 0a3f 405a c23e 76d6 ad3e 2ed1 943e
0.5394468 0.3795948 0.33952683 0.2906584
